Model
Model: "sequential"
________________________________________________________________________________
Layer (type)                        Output Shape                    Param #     
================================================================================
dense (Dense)                       (None, 256)                     200960      
________________________________________________________________________________
dropout (Dropout)                   (None, 256)                     0           
________________________________________________________________________________
dense_1 (Dense)                     (None, 128)                     32896       
________________________________________________________________________________
dropout_1 (Dropout)                 (None, 128)                     0           
________________________________________________________________________________
dense_2 (Dense)                     (None, 10)                      1290        
================================================================================
Total params: 235,146
Trainable params: 235,146
Non-trainable params: 0
________________________________________________________________________________


